test/optimization_guide_model_store/20/E6DC4029A1E4B4C1/001A22EC842E02C2/model.tflite (tflite, 64852 bytes, 5 tensors)

arith.constant f4 [1, 64]
-0.22943263 0.24203958 -0.25212827 0.27229807 0.07243724 0.33567408 -0.16186501 -0.09848416
0.32093728 -0.19084607 -0.09355371 0.106586844 0.109173626 0.026144471 0.02900304 -0.25117797
-0.23934285 0.24406926 -0.24798968 0.08407502 0.05228129 0.2507274 0.09226021 0.24947147
-0.23257113 -0.20247008 0.2713564 -0.20487845 0.2498628 0.20730607 0.19266976 0.17106657
0.0797694 0.21694092 -0.28269625 0.29021466 -0.110483445 0.14488123 0.028232507 -0.32974574
-0.09048289 0.17029367 0.32533458 -0.30698225 -0.20285672 0.12638056 0.20536874 0.3742958
-0.4232921 0.32462654 0.19346705 0.24720325 0.1452244 0.37036213 -0.31962386 -0.17266487
0.038255606 0.31115076 -0.2932043 0.3310852 0.22707567 0.13407665 -0.24459822 -0.16033445
00000000: 63f0 6abe 39d9 773e f516 81be a76a 8b3e
00000010: fa59 943d 79dd ab3e f1bf 25be 10b2 c9bd
00000020: e451 a43e 276d 43be 1699 bfbd 344a da3d
00000030: 6c96 df3d ee2c d63c c997 ed3c 669a 80be
00000040: 4b16 75be 4bed 793e 02f1 7dbe 862f ac3d
00000050: e824 563d 575f 803e ecf2 bc3d 7375 7f3e
00000060: 2027 6ebe 5154 4fbe 3aef 8a3e a8cb 51be
00000070: 09dc 7f3e 0b48 543e 394b 453e 132c 2f3e
00000080: 245e a33d c325 5e3e 90bd 90be 0497 943e
00000090: 2545 e2bd bf5b 143e dc47 e73c 6fd4 a8be
000000a0: 184f b9bd 7761 2e3e 4192 a63e c72c 9dbe
000000b0: acb9 4fbe e869 013e 2f4c 523e b3a3 bf3e
000000c0: beb9 d8be 7335 a63e 3a1c 463e d922 7d3e
000000d0: b5b5 143e 1ba0 bd3e bda5 a3be 0fcf 30be
000000e0: e9b1 1c3d 274f 9f3e e01e 96be 0084 a93e
000000f0: 8686 683e 644b 093e f577 7abe b72e 24be

arith.constant1 f4 [64, 128]
0.054255534 -0.19879165 -0.039825033 0.0236086 0.06034588 0.03808171 0.093398064 -0.14391372
-0.14012249 -0.19258039 -0.06901227 0.062382143 -0.13633437 0.10870536 0.07446801 -0.13207814
-0.10899908 0.19589275 -0.046787005 -0.09837057 -0.053183947 0.11565981 0.14576717 0.17458858
-0.03894075 -0.10150803 -0.04050432 0.15024954 0.098217115 -0.16502343 0.120848976 0.13456587
-0.052442722 -0.15392879 0.10930097 0.13313161 0.13684402 0.13293189 -0.104300186 0.18684542
0.18165913 -0.060713287 -0.02016008 -0.02827762 0.14771974 0.05192114 -0.09339546 0.12078389
0.11114198 0.16691175 -0.16823745 -0.14673059 0.053534858 0.096094355 -0.14009607 0.13071796
0.01620164 -0.119781084 -0.07769612 -0.10453102 0.16593888 0.017689059 0.15469316 -0.090008415
-0.12623593 0.006410087 0.06275713 -0.16324325 -0.026746688 -0.118417144 -0.0024561 -0.07515906
-0.04648868 -0.07271234 0.099156104 0.15021762 0.11760442 0.031817865 -0.16820158 -0.13593538
-0.011857527 -0.16564156 -0.15214767 0.18018502 -0.02095098 -0.056748565 0.08691285 -0.029822739
-0.14027481 -0.054066975 -0.11317548 0.080547884 0.030666262 0.09320378 0.003004555 0.15468079
0.14070931 -0.07861937 -0.073408246 -0.00519951 0.1426289 -0.04837636 -0.08837048 -0.09484711
0.18171018 -0.034629494 0.13704817 -0.1170251 0.031343054 -0.0014312131 0.0072356993 0.10894024
-0.026866928 0.07913357 0.18875764 0.010992387 -0.17773637 0.083099835 0.06964339 0.15276372
-0.07196531 0.09388412 0.006888758 0.0706695 -0.18074046 0.07813435 -0.14147983 -0.12058601
0.0054346095 0.11780225 -0.09300294 -0.11758867 -0.12137803 -0.019243993 0.1567651 -0.10159186
-0.07139421 -0.027766567 -0.0010324832 0.011038539 0.1689054 0.009620799 0.15922111 -0.17821403
-0.017303703 -0.16056275 -0.15289001 0.060700167 -0.09845538 0.057913423 0.1606696 -0.13178712
0.17886065 0.022027766 0.13112158 0.19765931 0.031142779 0.009926431 0.019261276 0.1321022
-0.15705396 0.09371515 -0.15424518 0.025741454 0.0011425187 -0.10442341 -0.099041365 0.16440722
-0.13410152 -0.035026927 -0.18051548 -0.029717397 0.07517043 0.16414745 -0.09454943 0.07440643
-0.099069394 -0.19216496 -0.098568566 -0.19036558 -0.042609908 0.16058005 0.03549292 -0.038394418
-0.1093125 -0.09845747 -0.14130162 -0.18389943 -0.14283623 -0.0021261917 -0.095635414 0.12812422
0.0063302545 -0.124441266 0.091323055 -0.08216316 -0.007038657 -0.023242842 -0.12832506 0.1316535
0.12362338 0.098062485 -0.09409094 0.1668161 0.15121557 0.029654656 0.05673099 0.16642126
0.1790883 -0.11020601 0.067729004 -0.0014717527 -0.009931775 -0.10395838 0.043930043 0.11329527
-0.15352924 -0.1210112 -0.11076392 -0.052826565 -0.17255896 0.012797738 0.06657432 0.040029373
0.09834337 -0.11636798 0.13597764 -0.069756076 0.13386112 0.027531346 0.04034755 0.15904695
0.09093685 0.10557951 -0.13112794 -0.07614395 -0.1908075 0.086979665 0.18818924 -0.049187243
-0.10276334 -0.16585891 0.0856713 -0.11239407 -0.026550256 0.13219921 0.041801114 -0.115583554
0.0068254876 -0.15813522 -0.15248631 0.14363398 0.13640195 -0.086113796 0.0069819377 -0.034183916
00000000: 0d3b 5e3d 0a90 4bbe 931f 23bd d366 c13c
00000010: 3e2d 773d 91fb 1b3d 7c47 bf3d 1e5e 13be
00000020: 457c 0fbe cb33 45be 4e56 8dbd 6b84 7f3d
00000030: 3d9b 0bbe eaa0 de3d af82 983d 7e3f 07be
00000040: e93a dfbd 1c98 483e bba3 3fbd 8276 c9bd
00000050: 69d7 59bd 0ddf ec3d fd43 153e 59c7 323e
00000060: 5680 1fbd 71e3 cfbd dce7 25bd 04db 193e
00000070: 0e26 c93d e7fb 28be ab7f f73d a3cb 093e
00000080: 2ece 56bd 829f 1dbe 30d9 df3d a753 083e
00000090: d720 0c3e 4c1f 083e 569b d5bd 6854 3f3e
000000a0: da04 3a3e 7fae 78bd c126 a5bc 78a6 e7bc
000000b0: d843 173e 43ab 543d 1e46 bfbd 8b5d f73d
000000c0: 689e e33d eaea 2a3e 7046 2cbe 8b40 16be
000000d0: 5e47 5b3d 1ecd c43d 5875 0fbe eeda 053e
000000e0: 4db9 843c c94f f5bd 251f 9fbd 5c14 d6bd
000000f0: e2eb 293e a5e8 903c e267 1e3e 5556 b8bd
00000100: fe43 01be b50b d23b cf86 803d 3d29 27be
00000110: df1b dbbc b084 f2bd 85f6 20bb feec 99bd
00000120: ea6a 3ebd 35ea 94bd 5b12 cb3d a6d2 193e
00000130: 96da f03d 7353 023d 093d 2cbe a532 0bbe
00000140: 1346 42bc f19d 29be 99cc 1bbe 6c82 383e
00000150: 64a1 abbc 2f71 68bd 5dff b13d d14e f4bc
00000160: 33a4 0fbe 5575 5dbd 8cc8 e7bd 4af6 a43d
00000170: d037 fb3c a0e1 be3d 11e8 443b a464 1e3e
00000180: 1a16 103e 3103 a1bd 1057 96bd a760 aabb
00000190: 4f0d 123e 4a26 46bd 95fb b4bd 343f c2bd
000001a0: 3c12 3a3e a8d7 0dbd 5b56 0c3e dbaa efbd
000001b0: 9361 003d 8b97 bbba 7219 ed3b 101c df3d
000001c0: 0818 dcbc c810 a23d af49 413e 6a19 343c
000001d0: 8600 36be 3f30 aa3d 32a1 8e3d 186e 1c3e
000001e0: 8c62 93bd 5146 c03d 17bb e13b 2cbb 903d
000001f0: 0714 39be e704 a03d 17e0 10be ccf5 f6bd
00000200: cf14 b23b 4e42 f13d 5378 bebd 54d2 f0bd
00000210: 0b95 f8bd 94a5 9dbc 0887 203e 650f d0bd
00000220: 2137 92bd b676 e3bc 6354 87ba fdda 343c
00000230: 8af5 2c3e 8ea0 1d3c dc0a 233e bd7d 36be
00000240: 7fc0 8dbc 906a 24be 338f 1cbe bda0 783d
00000250: f9a2 c9bd a036 6d3d 9286 243e 34f3 06be
00000260: 3f27 373e 9373 b43c bc44 063e 3467 4a3e
00000270: 241f ff3c 78a2 223c d3c9 9d3c cd45 073e
00000280: c1d2 20be bbed bf3d 73f2 1dbe bedf d23c
00000290: 91c0 953a f1db d5bd 33d6 cabd 5e5a 283e
000002a0: e951 09be 6578 0fbd 0dd9 38be e671 f3bc
000002b0: f4f2 993d 4516 283e 22a3 c1bd 6662 983d
000002c0: e5e4 cabd e4c6 44be 51de c9bd 32ef 42be
000002d0: ba87 2ebd 196f 243e 0661 113d 7743 1dbd
000002e0: 3bdf dfbd 12a4 c9bd 5fb1 10be 2250 3cbe
000002f0: a943 12be 9457 0bbb 80dc c3bd ff32 033e
00000300: 066e cf3b 10db febd 9507 bb3d 2945 a8bd
00000310: 89a4 e6bb c667 bebc a567 03be 2dd0 063e
00000320: 412e fd3d fcd4 c83d c0b2 c0bd d7d1 2a3e
00000330: 41d8 1a3e 52ee f23c c15e 683d 566a 2a3e
00000340: ec62 373e b0b3 e1bd 81b5 8a3d d3e7 c0ba
00000350: e2b8 22bc 22e8 d4bd fdef 333d 5a07 e83d
00000360: c536 1dbe b8d4 f7bd 32d8 e2bd ab60 58bd
00000370: 4cb3 30be 9bad 513c 1e58 883d d7f5 233d
00000380: 4068 c93d 5652 eebd b93d 0b3e 46dc 8ebd
00000390: e412 093e 6b89 e13c 7943 253d 34dd 223e
000003a0: 193d ba3d 123a d83d 6746 06be 5cf1 9bbd
000003b0: 0b63 43be 6522 b23d aeb4 403e 9078 49bd
000003c0: 9675 d2bd ebd6 29be 6f74 af3d dd2e e6bd
000003d0: ec7f d9bc 3b5f 073e a537 2b3d 12b7 ecbd
000003e0: 57a8 df3b 33ee 21be 5f25 1cbe c914 133e
000003f0: f4ac 0b3e 6e5c b0bd bdc8 e43b 6f04 0cbd

arith.constant2 f4 [128, 12]
-0.015148188 -0.14242508 0.09874648 -0.026151009 -0.03126401 -0.12448971 -0.14622943 0.16650675
-0.22104688 0.08890088 0.0053074798 -0.14389436 -0.19086279 0.12951532 0.11267469 0.012517245
0.037327576 -0.02066098 -0.06951659 0.16364077 -0.124160334 0.11677208 -0.0049954094 0.07568707
0.0046463464 0.12831073 0.03191303 0.14291549 0.16204254 -0.042087313 -0.11979444 -0.14448607
-0.14079693 -0.19240078 -0.028276384 0.1397625 -0.074075736 -0.039974708 -0.18347342 0.038143337
-0.122099064 -0.14642829 -0.014762931 -0.1436245 -0.30172107 -0.071948625 -0.013398021 -0.039566066
-0.11096962 0.19567958 -0.009510005 0.17467327 0.2043248 -0.105846055 0.037870876 0.12587933
0.17770723 0.13132626 0.076823965 -0.04982042 0.11032143 -0.15173753 0.030455453 0.076188006
0.17804037 0.11536677 0.021423858 -0.035359018 0.03578171 -0.064367965 -0.1733445 -0.05385368
-0.03012598 -0.123053215 -0.093249306 -0.1256122 0.043399796 0.06378511 -0.17642331 0.10889851
0.20145556 0.03123088 -0.09582699 0.07185054 0.08554697 -0.09765912 -0.06278215 0.008257974
0.19486819 -0.18166292 -0.007682804 -0.10645547 -0.12863149 0.024068605 0.011609742 -0.086234406
0.005798759 -0.13314316 0.015815983 0.02036937 0.08019878 0.120526 -0.009635676 0.067572005
0.21472006 0.03875714 -0.073703416 0.040532928 -0.03707699 0.08236077 -0.14224868 0.18362449
-0.0947657 0.024191644 -0.12438832 -0.034005597 -0.06520542 -0.12869774 0.18692224 -0.022864262
0.06646117 0.062429074 -0.0019803615 -0.1021772 0.21986121 0.13975555 -0.06409978 -0.13935381
-0.24744228 -0.022260154 -0.21926843 -0.15175813 0.1490168 0.013939017 -0.20634954 0.10362444
-0.046139307 -0.090323076 0.12645812 -0.055379305 0.05832209 -0.07233984 0.120330445 0.19800746
0.11194889 -0.11822258 -0.15685335 0.06146765 -0.13222688 0.012701281 0.04739639 -0.010676603
-0.10961873 0.19434598 -0.11357074 0.0963663 0.11018099 0.04349269 -0.08420507 -0.13273971
-0.14627856 0.07924577 0.15184653 -0.15865713 -0.14338408 0.16336393 0.17193455 -0.041835867
0.04581483 -0.16629674 -0.12531957 0.039823793 -0.018787257 0.11437414 -0.12766966 -0.100234
-0.106221534 -0.24195585 -0.06566819 -0.21824373 -0.015096502 -0.058293723 0.08342801 0.17679408
0.20167273 0.06647163 0.07897821 0.023719935 0.027927585 -0.23208131 0.10326799 0.11424429
0.11952808 -0.004108376 0.22203398 0.112422734 0.095678374 0.02834375 -0.03620792 -0.11048777
-0.05997151 0.14448953 -0.039785057 0.124734126 -0.09369623 -0.12556048 0.101517476 -0.006282888
-0.03192206 0.21026905 0.082892746 0.016838992 0.16897546 0.035878573 0.15043645 -0.2636748
-0.07583396 0.20183484 -0.05726452 -0.09545782 -0.035785146 -0.19132353 0.18019281 -0.11929297
0.087923236 -0.018223938 0.16170664 -0.109919176 0.06691492 0.11178007 -0.09998836 0.0643239
-0.02681105 -0.051572274 -0.073230915 -0.0065098754 0.16825846 0.09001367 0.14657447 0.18257052
-0.09555611 -0.09568461 0.07259938 -0.12543306 0.21422692 0.11263829 0.021533545 0.1513274
0.19018033 -0.08287254 0.097444184 -0.07716224 -0.16169089 -0.053623278 0.21914433 0.16766505
00000000: 1b30 78bc e1d7 11be 983b ca3d a43a d6bc
00000010: b10e 00bd 76f4 febd 2bbd 15be bf80 2a3e
00000020: 1d5a 62be aa11 b63d 5eea ad3b 0b59 13be
00000030: 8971 43be aa9f 043e fdc1 e63d 2115 4d3c
00000040: cde4 183d 3741 a9bc b75e 8ebd 7291 273e
00000050: c647 febd 3326 ef3d 88b0 a3bb d301 9b3d
00000060: 6140 983b e363 033e 3db7 023d 7058 123e
00000070: 7bee 253e bf63 2cbd ca56 f5bd 28f4 13be
00000080: 122d 10be b604 45be e0a3 e7bc e71d 0f3e
00000090: 05b5 97bd 85bc 23bd 75e0 3bbe 303c 1c3d
000000a0: 130f fabd 4cf1 15be 38e0 71bc 4d12 13be
000000b0: 2f7b 9abe cd59 93bd 6083 5bbc 0710 22bd
000000c0: 0a44 e3bd 3a60 483e dacf 1bbc 8ddd 323e
000000d0: 853a 513e d1c5 d8bd 7e1e 1b3d 83e6 003e
000000e0: e2f8 353e 647a 063e e255 9d3d 7f10 4cbd
000000f0: 34f0 e13d 1561 1bbe b77d f93c 7508 9c3d
00000100: 3750 363e 6a45 ec3d 1681 af3c 9ed4 10bd
00000110: d88f 123d 5ad3 83bd 3881 31be ad95 5cbd
00000120: c2ca f6bc 5303 fcbd 7ef9 bebd 7ca0 00be
00000130: fcc3 313d c5a1 823d 50a8 34be 2f06 df3d
00000140: 5e4a 4e3e e7d7 ff3c f140 c4bd 6026 933d
00000150: 4033 af3d 8101 c8bd ee93 80bd 744c 073c
00000160: 878b 473e d805 3abe 08c0 fbbb 5305 dabd
00000170: f9b7 03be 862b c53c ca36 3e3c aa9b b0bd
00000180: 8403 be3b ae56 08be 8590 813c aadd a63c
00000190: 423f a43d 56d6 f63d f4de 1dbc 3163 8a3d
000001a0: 93df 5b3e cfbf 1e3d d1f1 96bd db05 263d
000001b0: 0bde 17bd c3ac a83d a3a9 11be 0f08 3c3e
000001c0: 8514 c2bd 8e2d c63c 4ebf febd 7449 0bbd
000001d0: 6b8a 85bd 57c9 03be 8b68 3f3e d54d bbbc
000001e0: cb1c 883d a1b5 7f3d f4c8 01bb 4842 d1bd
000001f0: 4c23 613e 141c 0f3e bf46 83bd c4b2 0ebe
00000200: 8261 7dbe ed5a b6bc e787 60be 7c66 1bbe
00000210: dc97 183e 7a60 643c 4b4d 53be 0d39 d43d
00000220: 92fc 3cbd 4efb b8bd 3d7e 013e 69d5 62bd
00000230: 25e3 6e3d e926 94bd cf6f f63d 78c2 4a3e
00000240: 7645 e53d ae1e f2bd 2a9e 20be 81c5 7b3d
00000250: 7c66 07be 0919 503c b822 423d ebec 2ebc
00000260: c97f e0bd a202 473e c797 e8bd b25b c53d
00000270: 92a6 e13d 6425 323d b573 acbd ebec 07be
00000280: 0cca 15be 9b4b a23d a87d 1b3e 0477 22be
00000290: 47d3 12be e048 273e 9c0f 303e 165c 2bbd
000002a0: 55a8 3b3d b149 2abe c653 00be 461e 233d
000002b0: bce7 99bc fd3c ea3d d6bb 02be 7c47 cdbd
000002c0: ad8a d9bd 46c3 77be 0b7d 86bd 497b 5fbe
000002d0: 5257 77bc 66c5 6ebd 4edc aa3d 8209 353e
000002e0: 4c83 4e3e 4722 883d 54bf a13d 4f50 c23c
000002f0: 64c8 e43c b9a6 6dbe 2b7e d33d e9f8 e93d
00000300: 23cb f43d 8e9f 86bb e05c 633e e43d e63d
00000310: 06f3 c33d 2731 e83c c24e 14bd 6947 e2bd
00000320: b0a4 75bd 10f5 133e a8f5 22bd 9b74 ff3d
00000330: cfe3 bfbd ed92 00be 65e8 cf3d afe0 cdbb
00000340: b5c0 02bd c550 573e acc3 a93d edf1 893c
00000350: e707 2d3e 69f5 123d 030c 1a3e 6200 87be
00000360: d64e 9bbd cbad 4e3e 348e 6abd 647f c3bd
00000370: 7293 12bd 51ea 43be 7784 383e df4f f4bd
00000380: 1911 b43d 5e4a 95bc 6d96 253e 4e1d e1bd
00000390: b10a 893d f3ec e43d b3c6 ccbd 40bc 833d
000003a0: d9a2 dbbc 733d 53bd 17fa 95bd cb50 d5bb
000003b0: f24b 2c3e 1659 b83d 9e17 163e c4f3 3a3e
000003c0: ecb2 c3bd 4bf6 c3bd fcae 943d 8671 00be
000003d0: 4d5e 5b3e e7ae e63d 1e67 b03c 92f5 1a3e
000003e0: a2be 423e 14b9 a9bd d190 c73d 3d07 9ebd
000003f0: 4c92 25be 15a4 5bbd 5f67 603e 63b0 2b3e

arith.constant29 f4 [64]
0.0013475129 -0.02781182 -0.036266204 -0.029259846 -0.006227317 -0.03796892 -0.030145003 0.008927126
0.06848061 0.00023930761 0.0087457355 0.0019797643 0.018856788 -0.041982606 -0.021029165 0.01836509
-0.0619405 0.07313901 -0.025263406 -0.038412683 -0.0072735026 0.0023001658 -0.0076867607 0.040810633
-0.0023810328 -0.039074987 -0.071280204 0.0020377783 0.046242185 -0.017962271 0.029989945 -0.027093975
0.0023523453 0.0071006287 -0.02323116 0.045434088 -0.040720105 0.004196411 -0.013432643 -0.06072789
0.03675663 -0.0421025 0.06033855 -0.045778718 0.0127801 -0.035438973 0.008745674 -0.09744011
-0.10319001 0.048738897 0.0076442915 0.048757263 -0.0020382523 -0.09565182 0.01540862 -6.524177e-05
-0.0015584338 -0.08372509 0.019895181 -0.03408282 0.030906698 -0.005260237 -0.0078017004 -0.030909332
00000000: 089f b03a 9dd5 e3bc df8b 14bd 58b2 efbc
00000010: 850e ccbb 4c85 1bbd a7f2 f6bc 1543 123c
00000020: 903f 8c3d a6ee 7a39 464a 0f3c efbe 013b
00000030: 8d79 9a3c f4f5 2bbd 5b45 acbc 6372 963c
00000040: 52b5 7dbd e8c9 953d 34f5 cebc 9e56 1dbd
00000050: 9056 eebb 61be 163b 39e1 fbbb 0d29 273d
00000060: 1a0b 1cbb 180d 20bd 5bfb 91bd 3f8c 053b
00000070: 7268 3d3d 9d25 93bc 79ad f53c 2ff4 ddbc
00000080: ce29 1a3b 64ac e83b 464f bebc 1819 3a3d
00000090: 20ca 26bd 0c82 893b 9714 5cbc cfbd 78bd
000000a0: 1f8e 163d ac73 2cbd 8e25 773d 7782 3bbd
000000b0: a063 513c 7528 11bd 044a 0f3c ae8e c7bd
000000c0: 4955 d3bd 70a2 473d f77c fa3b b2b5 473d
000000d0: 3394 05bb 1ae5 c3bd 7074 7c3c 69d2 88b8
000000e0: 5c44 ccba 0f78 abbd 38fb a23c 6d9a 0bbd
000000f0: 0b30 fd3c 115e acbb 68a5 ffbb 9135 fdbc

arith.constant30 f4 [128]
-0.035755247 -0.05212941 -0.022431849 -0.015546074 0.015560431 0.08040241 -0.002500149 -0.048686042
-0.0075459327 -0.0038023437 0.013525361 0.02885143 -0.047864605 0.026649747 -0.024948161 0.035878453
0.010044332 0.03981351 -0.046588767 -0.03384932 0.021253608 -0.07773812 0.006958517 -0.014988938
-0.014156018 0.024782198 0.010563449 -0.08066887 -0.01671737 -0.046239123 -0.026610242 -0.012084938
0.02543314 -0.04646465 -0.05556295 -0.01817722 0.10501062 -0.07559835 -0.02734211 0.042750068
0.052185897 -0.0017217654 0.023649164 -0.031348232 -0.017212328 -0.044314284 -0.035312213 0.04124721
0.0025130454 -0.011739664 -0.050335914 -0.0018814086 0.034324124 0.047184967 -0.05407728 -0.015721735
-0.06593616 -0.012492583 -0.05083912 0.011884204 0.027677894 -0.040291008 -0.046757672 0.011898278
-0.058421575 -0.061379727 0.057704337 -0.004396085 0.043193407 -0.11495441 0.00766331 -0.03871317
-0.093899734 -0.08253971 -0.02525286 0.026830617 0.01361729 -0.063397795 -0.09138947 -0.03436425
-0.05556136 -0.013110128 0.018150782 0.014591815 -0.021544114 -0.032511856 -0.06628894 0.08101062
-0.0071337493 0.038062986 0.048841387 0.04714193 -0.025103103 -0.016141292 0.05370959 -0.03228865
-0.010685927 0.01790041 -0.066657305 -0.041947152 -0.024812149 0.034386784 -0.10247077 -0.12428388
0.06957793 -0.028334286 0.010229649 -0.007836449 -0.002946788 0.025407411 -0.048563305 -0.05618954
-0.09532168 0.051208988 -0.07477062 -0.010152075 -0.07952701 0.0112828165 -0.0061283316 -0.08961646
-0.08160087 0.058416873 -0.017748857 0.04967118 -0.13860273 -0.022110345 -0.02796142 -0.032028083
00000000: 1874 12bd a685 55bd ffc2 b7bc f6b4 7ebc
00000010: 2ef1 7e3c 05aa a43d 8ad9 23bb 046b 47bd
00000020: df43 f7bb be30 79bb 7a99 5d3c d659 ec3c
00000030: ad0d 44bd 9250 da3c 1660 ccbc 49f5 123d
00000040: fb90 243c 7e13 233d ddd3 3ebd 96a5 0abd
00000050: 0c1c ae3c 2a35 9fbd 4504 e43b 2a94 75bc
00000060: a5ee 67bc 0904 cb3c 5112 2d3c b835 a5bd
00000070: def2 88bc 3c65 3dbd b9fd d9bc e7ff 45bc
00000080: 2959 d03c b851 3ebd fa95 63bd 65e8 94bc
00000090: cf0f d73d 4fd3 9abd 90fc dfbc b21a 2f3d
000000a0: e1c0 553d dcac e1ba e4bb c13c 0167 00bd
000000b0: de00 8dbc e582 35bd 8aa3 10bd d6f2 283d
000000c0: e8b1 243b b857 40bc 082d 4ebd 9999 f6ba
000000d0: 7497 0c3d 0645 413d 2380 5dbd deca 80bc
000000e0: 8a09 87bd b1ad 4cbc ae3c 50bd f7b5 423c
000000f0: c0bc e23c 2f08 25bd f984 3fbd fff0 423c
00000100: 764b 6fbd 4f69 7bbd 625b 6c3d 090d 90bb
00000110: 92eb 303d 386d ebbd 811c fb3b b391 1ebd
00000120: 814e c0bd 940a a9bd 16df cebc e2cb db3c
00000130: 0e1b 5f3c b4d6 81bd 672a bbbd 87c1 0cbd
00000140: 4f94 63bd ddcb 56bc f3b0 943c 8212 6f3c
00000150: 487d b0bc 272b 05bd 7fc2 87bd e5e8 a53d
00000160: 3ac2 e9bb efe7 1b3d e80d 483d e517 413d
00000170: 06a5 cdbc be3a 84bc 96fe 5b3d 1a41 04bd
00000180: 0714 2fbc e1a3 923c a083 88bd c7d0 2bbd
00000190: d942 cbbc 28d9 0c3d 32dc d1bd 8c88 febd
000001a0: e07e 8e3d 4e1d e8bc 429a 273c 7364 00bc
000001b0: e61e 41bb 3423 d03c 51ea 46bd 0127 66bd
000001c0: 0338 c3bd 84c0 513d 5721 99bd e454 26bc
000001d0: 0fdf a2bd 90db 383c 2cd0 c8bb d688 b7bd
000001e0: 5b1e a7bd 8846 6f3d 0d66 91bc 0274 4b3d
000001f0: e0ed 0dbe c120 b5bc 590f e5bc e12f 03bd
